atari/ppo/PPO_LunarLander-v2.pth (torch_old, 41416 bytes, 11 tensors)

action_layer.0.weight f4 [64, 8]
00000000: c68b b83e bbea bebe b3aa 133e 44ab c6be
00000010: 4eee c2be 40f8 e93d 07b7 543e c165 233e
00000020: 0aae b23c f3ae ebbd 842b c93e 6847 b83e
00000030: 9a05 2bbf 650a f93c a8fc d83e 0f69 4e3d
00000040: 530a 803e ec5b 22be 577f 863e 7b0d c2be
00000050: 3221 89be 661f 77be b88a 8c3d ca40 d2bd
00000060: 865b 9e3e 62d6 7fbe 1b57 27be e886 20bf
00000070: e52c 3ebe ef58 b7be 076b 90bd ae30 153e
00000080: 30f3 82be 3bcb b53e d18a 0fbc 1515 983e
00000090: 0739 b93c 8f05 8b3c 4454 4c3e 439f eb3c
000000a0: a8b2 0ebd 8a2f a3be 0eef a2bd 0c08 05bf
000000b0: ea96 6fbd 4135 313e f55d 5c3e 8884 0fbe
000000c0: 5921 acbe c55f 95bc d120 e4be 7a2d 5abc
000000d0: befe 2a3f b40e b73e 0fbe 393e 8e47 ca3c
000000e0: ea85 87bc 2dce 79bd 6287 d33e 162e a93e
000000f0: 2ac6 e0be 8510 323e 5e8d d4bd 88a7 983e
00000100: 82b0 863d e4c1 98bd 409c 953e 49c2 89be
00000110: 1484 52be 9a6f a8bd e039 06bc b431 2fbe
00000120: 0626 1f3e e61a 613e ac7f 4bbd f571 0d3d
00000130: 7d07 f9be cb41 c83b 1a15 eebe d3f1 df3d
00000140: 4bf8 113d 4e7f f5bc e986 9bbe fb40 9f3d
00000150: 7f11 66bb ed9e 7cbd 10ab d5be f1af 1a3e
00000160: 6242 8f3e 62a7 173e 950f 3d3e 60a5 f03d
00000170: 9d78 05bf a28c 07bf 0d3c 0fbe 583f 9c3c
00000180: 5ca5 74bc 91d6 443e 594d b8be 8a41 c83c
00000190: 54d3 e43e 1652 993d f38a 12bf d10a b3be
000001a0: 2286 a03e a6a3 f4bc c79b 57be ed90 17bf
000001b0: d62f 243e 1d80 01be a61e 56bd 0ee5 c5bd
000001c0: eee6 753c 34fe bc3d 6ec2 ab3d c5d7 0e3f
000001d0: 3a6c 24be 71e5 6abe 30be 49bd 8042 5bbe
000001e0: 1296 123e a364 21be 30ab 61bd 6079 b0bd
000001f0: 6064 f93e 5f6c b83e 3ec6 a0be 6d2f b1be
00000200: 2761 24be 6493 bbbd f2f9 89be e627 013f
00000210: 7f74 563d a7b6 003f 4068 7c3e 65da 813e
00000220: eba5 67be 9a86 19be 6973 f73c cc11 133f
00000230: 2385 dabe 63ac 663e e8c2 4abc f4ac 4ebd
00000240: 5fd6 a23e 4943 1ebe 50de 893e 302c 143f
00000250: 6d6c b3bd 0fa3 5f3e f6f7 143e c9c6 f1bc
00000260: 08e3 9539 0cba 3d3e ac4f 7f3e 8fe7 113f
00000270: dc13 60be e0fb 503d 3723 ae3e 8df3 51be
00000280: d224 dd3e e102 603e 8251 083e e8e5 02be
00000290: 9409 e8be fb80 8abe 5666 1d3e 8eee a83d
000002a0: 5fe2 a33d ac19 1a3e e9df 85be 0413 4bbe
000002b0: 4543 d73e 2fe0 a53e 0d32 193e 426b 94be
000002c0: 15da 11be d888 a9be 1529 52be f989 00bf
000002d0: ae1a ad3d 53cd 4d3e 1a87 c43d bcfc 523e
000002e0: b6ef da3d 5cfe 413e d430 2a3d 5257 47be
000002f0: 3a68 c33e daef 03be 96c5 23be f855 9dbe
00000300: 5fc1 21bb df26 ac3d a304 4cbe 1588 153f
00000310: a678 e53e 06e2 863d 4225 06be 644b 853d
00000320: b685 2c3e b089 123e 572f 8dbd 5f77 91be
00000330: 72b5 1abf a8e0 21be 13a3 9b3d 78a7 e33d
00000340: 0197 3ebe b1ab 30bd c543 093f cb17 bc3e
00000350: 8e81 fdbe 8012 ffbe 57d4 2d3e cc5a a73e
00000360: 5139 2dbd 4e13 8d3e fc37 63be 6a90 b93e
00000370: c29b a23e 463b e13e c992 e03d c134 b23e
00000380: f3e7 67be f32d 1abe 57c2 10be 6b77 25bf
00000390: 462c c8bc 8160 6cbe 147a d2bd 0dd7 893e
000003a0: 8c17 5e3d d664 a63d d032 403d 4d57 edbe
000003b0: 94cb 8ebe 503b e03d 2259 663e 20a8 98bd
000003c0: 4398 a23d afb0 183e 6ff9 833e a207 533e
000003d0: 34ee 02bf 1765 8b3a ce31 43be c877 983d
000003e0: 63af 94be 768c 643e 497e 02bd dc5f 8d3d
000003f0: 5116 703e e8cb 26be 677b 46be 1d05 adbe
0.3604414 -0.3728846 0.14420585 -0.3880254 -0.38072437 0.11424303 0.20772944 0.15956785
0.021811504 -0.11507978 0.39291012 0.3599198 -0.6680542 0.030400464 0.4238026 0.05039316
0.25007877 -0.15855378 0.26269028 -0.3790091 -0.2678314 -0.24133071 0.06862396 -0.10266264
0.30929202 -0.24984124 -0.16341822 -0.6270585 -0.18571813 -0.35810038 -0.07051664 0.14569351
-0.25576162 0.35506615 -0.008761124 0.29703584 0.0226102 0.016970424 0.1995402 0.028762465
-0.03483835 -0.31872207 -0.07955752 -0.51965404 -0.058493532 0.17305471 0.21520217 -0.140154
-0.33619192 -0.018234143 -0.44556287 -0.0133165065 0.66794956 0.35753405 0.18138908 0.024692323
-0.016543347 -0.06098764 0.41314226 0.33042973 -0.43901187 0.17389114 -0.10378526 0.29815316
0.06576635 -0.07458857 0.29220772 -0.2690604 -0.20558196 -0.08224411 -0.008192509 -0.17108804
0.15541849 0.21982917 -0.049682304 0.034532506 -0.48638526 0.0061113588 -0.46500474 0.10934796
0.03563718 -0.02996793 -0.30376366 0.07776066 -0.0035105643 -0.061675 -0.41732073 0.15106179
0.27980334 0.14809945 0.18462975 0.11750293 -0.52137166 -0.52948964 -0.13987751 0.019073173
-0.014932003 0.19222476 -0.35996512 0.024445314 0.4469248 0.0748636 -0.5724327 -0.3496919
0.31352335 -0.02986319 -0.21055518 -0.59205514 0.16033873 -0.12646528 -0.052275322 -0.09662829
0.015008671 0.09228173 0.08386694 0.5579799 -0.1605691 -0.22939087 -0.049253643 -0.21412086
0.1431506 -0.15761046 -0.055094898 -0.086169004 0.48709393 0.3602018 -0.31401247 -0.34606495
-0.16052686 -0.09158972 -0.26948506 0.50451505 0.052357193 0.50278705 0.24649143 0.25361934
-0.22621886 -0.14992753 0.030206399 0.5744903 -0.426797 0.22526698 -0.012375571 -0.05045791
0.31804177 -0.15455355 0.26927423 0.57879925 -0.08760915 0.21839546 0.14547715 -0.029513733
0.00028588646 0.18528003 0.24932736 0.56993955 -0.21882576 0.051021457 0.34011242 -0.20503063
0.43192154 0.21876098 0.13312343 -0.12783015 -0.45319808 -0.2705153 0.1537107 0.08248626
0.08002161 0.15048856 -0.26147392 -0.19831473 0.4204351 0.323976 0.14960499 -0.2898808
-0.14243348 -0.33112216 -0.20523484 -0.5021053 0.08452354 0.20097856 0.09596081 0.20604223
0.106902525 0.18944687 0.041550472 -0.19466904 0.38165456 -0.12884465 -0.15993342 -0.3072965
-0.0024681909 0.084058516 -0.19923644 0.5841077 0.4481861 0.06586079 -0.1310015 0.0650852
0.16847882 0.14310336 -0.06893795 -0.28411385 -0.60433114 -0.15808356 0.07599463 0.111159265
-0.18612291 -0.043132488 0.53619033 0.36736903 -0.49512905 -0.49818802 0.16975532 0.3268646
-0.04229099 0.2755379 -0.22189325 0.36242992 0.3175946 0.43990535 0.10965497 0.34805873
-0.22647075 -0.1505659 -0.14136635 -0.6463534 -0.024435174 -0.23083688 -0.10277191 0.26921883
0.054221675 0.08124702 0.04692346 -0.46355668 -0.27889693 0.10948813 0.22494939 -0.07453942
0.07939198 0.1491115 0.2577624 0.2060838 -0.5114472 0.0010634986 -0.19061968 0.074447215
-0.2904006 0.22319207 -0.031858716 0.06903049 0.23446013 -0.16288722 -0.19383012 -0.33792964

action_layer.0.bias f4 [64]
00000000: 5a18 943c e90a 953e 1a7b 1f3e 71bc babd
00000010: 619d 30be 0dc9 6c3e 0cd6 d73d f7dc 6cbd
00000020: 2c9e 52be 4419 c4bc 48fe 173e 0bca 0d3c
00000030: 3de1 273d e5a9 973c 630a 423e c874 f33d
00000040: 8fd9 1b3e b21e 9a3e 051a 3c3d 4923 273e
00000050: 5bc6 6abe 3b62 24bd b7d2 6d3d 9db1 953d
00000060: 17df 3c3e 6a82 0abe 1106 10bd d4c8 0a3e
00000070: 6348 65bb aa73 d0bd 4d27 34be bcbd 723d
00000080: 830b 023e 3607 723e a344 9cbe c88e a43d
00000090: c4bb 0cbe 556e c83d 022a 0cbe 0a0f fabd
000000a0: af64 dfbd d465 d5bd a15a 343c 9a1d 9bbd
000000b0: 82f4 90bd b76b 76be 1261 9cbd 2b6f ae3c
000000c0: 9708 413e 3350 8cbe 3bfa d7bd 6464 1ebe
000000d0: 6819 86be 5fbe 97be 665a a53c 5f97 4abe
000000e0: 440a 54bb f6ff 093e e88b 1cbe ec94 4cbe
000000f0: 84c8 543d b383 163e eb46 223e 1d60 4bbe
0.018078018 0.29109886 0.15574303 -0.091179736 -0.17247535 0.2312357 0.10538873 -0.057827916
-0.2056815 -0.023937829 0.14843094 0.008654128 0.04098629 0.01851363 0.18949275 0.11887509
0.15219711 0.30101544 0.04592325 0.16322054 -0.22927229 -0.040132742 0.05806228 0.07309268
0.18444477 -0.13526312 -0.035162035 0.13553172 -0.0034985773 -0.10178311 -0.17593117 0.059262976
0.12699704 0.23635563 -0.30521116 0.08035046 -0.13743502 0.09786669 -0.136879 -0.122099
-0.10907876 -0.10419813 0.011007936 -0.075740054 -0.07077886 -0.24064527 -0.07635702 0.021293243
0.18850933 -0.27404937 -0.105457745 -0.15467983 -0.26191258 -0.2963743 0.020184707 -0.19784306
-0.0032354752 0.13476548 -0.15287745 -0.19978684 0.05194904 0.14698677 0.15847366 -0.19860883

action_layer.2.weight f4 [64, 64]
00000000: 4149 8a3d 18f1 c5bd 0caa 483d 1fce f43c
00000010: 6aef 6cbe 7f56 933c 1708 7cbe 2b7c ddbd
00000020: 9367 dbbd ee4f 353e ab6e 743d b63e 443e
00000030: 7e33 863d ca97 3a3e 1996 9a3d 108c 623a
00000040: 64d1 85be d9fb a53d 00a3 23be 6b1e 90bc
00000050: 1c54 8f3d 07e0 c43c 552c 61be 383f a23d
00000060: f20c adbd f399 193e 8102 86bd 6552 fe3c
00000070: 8415 713d 194d c13d 1831 213d 17e9 3e3d
00000080: 84ac ce3d d64d ce3c d2f4 65bd 5312 73be
00000090: 1aa7 153c a444 9d3c a434 8abd eba7 9dbd
000000a0: ebd3 0bbe 684b 76bd b349 51be ecab bcbd
000000b0: 39f4 fa3d 430d d3ba c799 cb3d 7e11 f2bb
000000c0: 0d8f 2c3e 5770 97be 1ae2 903c 475d 293e
000000d0: 06c5 c73c 5a96 fa3d f9b0 21be 2e49 ee3d
000000e0: f674 073d db2c 0b3e 3b63 19be 95df 89be
000000f0: 922f 0abe b499 543e 269f 0cbe 981f 913c
00000100: 3fe1 ffbd ab77 e93d 5684 a6be cd55 d0be
00000110: 91f5 1e3e 48cb e8bd 2831 3f3e 6dfb 293d
00000120: 8548 29bd 0a80 98bc 64a8 4bbd 66e5 84be
00000130: 4c33 e4bd 7bcb 93be f404 8abd 6c7d 07bd
00000140: 3a5c 8f3e 969f 9f3d 1c54 b83d 82eb 183e
00000150: dcf0 81be 2f87 2a3e f109 e5bc 0022 ddbd
00000160: 168e 713e cadc 6bbe 34b6 a63c 61f6 283e
00000170: fa86 55be 49f1 53be 610f 49bd 1503 e43d
00000180: b987 9e3d 8d37 00be df63 d73d a9f9 213e
00000190: 386a 74bd e580 1c3e e128 163e 7f63 00be
000001a0: ca6e dbbb e85e 553d a2ec e23b 8580 20bd
000001b0: 9bdc 1e3e 6f96 f23d 33b8 1b3d c946 8bbd
000001c0: 8f6d 7dbd 1867 493e d94b 95bd 206b eabe
000001d0: 7f82 76be e70c 32bd fb3a 813d f15b 77bd
000001e0: a849 02be 4965 83be c1e3 e7bd 6add 66bd
000001f0: 9e43 18be 9b8b 5cbe bfe2 2a3e 3635 933c
00000200: 90b5 ebbd c78b ff3d fb52 25be 9eed 79be
00000210: 8ec6 d53d 4231 063c fd40 45bd 8091 2c3d
00000220: c647 98bd 1593 26bd c100 87bd e9d3 4cbc
00000230: 990c ef3d 0018 50be e2c4 1e3e 97fa f2bd
00000240: 795c 983d a973 533e 7a1c e2bc e334 4b3e
00000250: 0a77 cbbd f7c2 17bd 128f f8bd df79 10be
00000260: 06a1 883e aa4d d6bd 464f 513e 4e7c db3d
00000270: 249a 8abe e571 23bd 0ae3 1a3e 1da3 4b3d
00000280: 650d b73d 1603 f23d 1c04 6cbd b570 e23d
00000290: ed0a 49be 9839 853e d1b0 94bd fddc 11bd
000002a0: 73be 263d 65a1 443d b4f0 97bd 4353 d1bd
000002b0: a009 1a3c 1e31 6c3e 57bb 35bd 0dbd 1abe
000002c0: cc96 943b 3703 acbd c44f 043e a8ca 54bd
000002d0: e2cc 3c3d d86e bbbd 7e3a bcbd 10de fb3d
000002e0: 2246 20be 878a 4cbd fa4a 20be e07d 803c
000002f0: 20ad 1f3d e4e1 5abe 949a 633d 1ec3 15bd
00000300: f848 04be e816 83bc be36 05bd e8f8 80be
00000310: 7543 45bd eaa3 43be 7dbc 84bd 1597 0b3e
00000320: 0420 a73d 0568 3c3c e1a6 1f3e 7a09 a03d
00000330: a107 2b3d d59c 50bd bab4 983e ecc9 043d
00000340: fcf2 ff3d 05dd a23d 1a56 7bba aa93 933d
00000350: 258c 70bc ce79 13be f1d5 35be 940c 28bd
00000360: b73d 813e 0e15 20bc e35b 0d3c 43d5 553d
00000370: 9252 27be fe07 5fbd 881f f0bc 6737 c13d
00000380: bf4b 233e 9dac 113e 1637 60bd fc2b 22be
00000390: a70f c7bd bca5 a03e 9f97 cebd a40d 16be
000003a0: ffbd 053d 10e0 7e3d 0ba8 46be cff1 84bd
000003b0: 63ef 953d f63c 973d 9739 d83c 10ed a2be
000003c0: 74cf 97ba 6c78 9bbd b9f2 3d3e 91a4 febd
000003d0: 05a8 383d 12f2 0d3e db4a a13d 15c0 ef3d
000003e0: baa6 2cbe 8f2d 48be 5120 48be 43ef febd
000003f0: 691d 7ebd cea1 adbd b907 17be b856 7abd
0.06752253 -0.096651256 0.048990294 0.029883442 -0.23138204 0.01798558 -0.24612461 -0.10814699
-0.107131146 0.17706272 0.059675854 0.19164547 0.0655279 0.18221965 0.0754816 0.0008642087
-0.26136315 0.08104677 -0.15980148 -0.01759263 0.069984645 0.024032606 -0.21989568 0.07922214
-0.08449735 0.15000133 -0.06543446 0.031045148 0.05885841 0.09438533 0.03935346 0.04660901
0.100914985 0.0251836 -0.056141682 -0.23737459 0.009134078 0.01919777 -0.06748322 -0.076980434
-0.13655059 -0.060130507 -0.2043827 -0.09212479 0.12253613 -0.0016101975 0.0994144 -0.007387339
0.16851445 -0.29577896 0.017685939 0.16539489 0.02438594 0.122357085 -0.15790166 0.11635052
0.033070527 0.1359133 -0.1497926 -0.26928392 -0.13494709 0.20761758 -0.13732585 0.01771526
-0.12494134 0.11399778 -0.3252284 -0.4069046 0.15523364 -0.11366898 0.18671095 0.041499544
-0.041328926 -0.018615741 -0.049721137 -0.25956267 -0.111425966 -0.2886618 -0.06739226 -0.033078596
0.2800005 0.077941105 0.090004176 0.14933589 -0.25379074 0.16653131 -0.027958842 -0.107975006
0.23589358 -0.23033443 0.020350553 0.16500236 -0.2085227 -0.20697512 -0.049086932 0.111334
0.07740731 -0.12521191 0.10517096 0.15817894 -0.05967161 0.15283544 0.14664032 -0.12537955
-0.0066965567 0.052092463 0.0069251815 -0.039185066 0.15513842 0.11845099 0.038017463 -0.068006106
-0.06187206 0.19668233 -0.072898574 -0.45784855 -0.24073218 -0.043469336 0.06310078 -0.060390417
-0.1272341 -0.25663212 -0.113227375 -0.0563635 -0.14869544 -0.2153763 0.1668806 0.017969709
-0.1150924 0.12477832 -0.16144936 -0.2440705 0.10438262 0.008190455 -0.04815768 0.042130947
-0.07435565 -0.040667612 -0.06591941 -0.012501695 0.11672325 -0.20321655 0.15504792 -0.118642025
0.07439513 0.2064959 -0.02760147 0.19844393 -0.09934814 -0.037051167 -0.121366635 -0.1410899
0.2668535 -0.10464032 0.20440397 0.107170686 -0.27070725 -0.03990354 0.15125671 0.049716104
0.08938102 0.11816995 -0.057621107 0.110566534 -0.19633074 0.26020503 -0.072602876 -0.03561114
0.04070897 0.04800548 -0.07418957 -0.10220959 0.009401709 0.23065612 -0.044368114 -0.1511118
0.004534578 -0.08399051 0.12921053 -0.05195108 0.04609383 -0.09152001 -0.09190844 0.122982144
-0.15651754 -0.049936797 -0.15653601 0.015685022 0.038983464 -0.21375233 0.05556734 -0.03656303
-0.1291846 -0.016002133 -0.03252291 -0.251899 -0.048160035 -0.19105497 -0.06481264 0.13631852
0.08160403 0.01149941 0.15591003 0.078143075 0.041755322 -0.050930817 0.29825383 0.03241913
0.124975175 0.079523124 -0.000958772 0.07205899 -0.014681851 -0.14401934 -0.17757393 -0.04102762
0.25242397 -0.009770645 0.0086278645 0.052205335 -0.16340092 -0.05445098 -0.02931191 0.09434395
0.15946864 0.14226003 -0.054740034 -0.15837091 -0.09719782 0.31376445 -0.10087513 -0.14653641
0.032651898 0.0622254 -0.19400041 -0.06491434 0.0732105 0.07384674 0.026394648 -0.3182149
-0.0011582212 -0.07591328 0.18549623 -0.12433732 0.04508211 0.13861874 0.07875606 0.117065586
-0.16860476 -0.19548629 -0.19543578 -0.12447979 -0.062039766 -0.084781274 -0.1474904 -0.061117858

action_layer.2.bias f4 [64]
00000000: 5e16 873b c22c 32bd fe96 7cbd d45d ec3d
00000010: 9a9d 3fbd 5fb8 47bc c108 b53b 4c56 cf3d
00000020: 7eec 8ebd 9c41 48bd 179a cc3d 75da 9b3d
00000030: 0b10 9a3d 9fdd cd3d a2c0 be3d 27ed 6e3d
00000040: 0694 7cbd 7dde 8fbd ed7e 99bd 2aaa 3ebd
00000050: e2c6 8f3b dbbb 193d 33ab ccbd bda2 5b3d
00000060: 8f83 78bd 68c5 403d c677 2c3d 924d e63d
00000070: 3fd7 b8bd 76e1 ed3c 0e52 d03d 4e31 b1bd
00000080: 31c0 03bb 4b59 2b3d 9742 93bd 1ab4 a83d
00000090: dc25 cb3d 7cae 30bd 040a 6fbd 435c 9e3d
000000a0: b864 34bd 25e3 35bc f368 b53d 1980 a83d
000000b0: ebbb e23c a7e9 0d3e 2c67 d1bd 32fe 9f3d
000000c0: 2e99 cabd badc 3c3d b148 9f3d 795d a4bd
000000d0: c0a3 d5bd 4cca efbd 086c 02bd c80c 8e3b
000000e0: 5796 993d f40d 21bc 1d1f 26bd d181 c2bd
000000f0: 5caa 4dbb baf3 d43d 77c1 65bd 33ca 953d
0.0041225394 -0.043499716 -0.061667435 0.11541334 -0.04678116 -0.012189954 0.005524725 0.10123882
-0.06978701 -0.048890695 0.09990328 0.07610027 0.07522591 0.100520365 0.093140855 0.058331635
-0.061664604 -0.07024858 -0.07494912 -0.046549 0.0043877224 0.03753267 -0.09993591 0.053621996
-0.06067234 0.04706326 0.042106412 0.11245264 -0.0902543 0.029038172 0.10171901 -0.08651982
-0.0020103569 0.041833203 -0.071904354 0.08237477 0.099193305 -0.04313515 -0.05835916 0.07732441
-0.044041365 -0.011101519 0.08857908 0.08227558 0.027677497 0.13858663 -0.102247566 0.07812156
-0.09892498 0.04610894 0.07777537 -0.08025641 -0.104316235 -0.11708507 -0.031841308 0.0043350197
0.07499378 -0.009829987 -0.040557016 -0.09497417 -0.003138206 0.1039805 -0.056092706 0.07313957

action_layer.4.weight f4 [4, 64]
00000000: 520d e6bd f46e cc3e b3ff 953e f328 593e
00000010: 6f0c 48be de60 7c3e 15f2 1dbe fe6f 9a3e
00000020: 1b4d 8e3e 90fa af3e ac3c bb3e 2479 d83d
00000030: 3fe9 62be e217 4b3d dd50 f8bb 5230 47bd
00000040: 8ac4 04bc b008 a2be c80b 38be 9dd3 62be
00000050: f725 113d af5f d83d c745 8abe 7226 943d
00000060: 7621 dbbd 9b19 2fbd 7634 02bd b52b 20be
00000070: fb80 513e dda3 083e 6b99 98be 3e84 7e3e
00000080: 7a59 683e 9daf 2e3d 37cb 873e b554 28be
00000090: c1d0 12be 697a 82be 3e9f 6bbe 2d10 813d
000000a0: 5fdd 47be f593 9ebe ab5d 043e d4ef c0bd
000000b0: d84b b1bd 88d3 e23d 5bf2 663c 9858 053d
000000c0: 0478 293e 809c c4be 8cb0 d6bd 02f0 1bbe
000000d0: 7314 49be ab40 3fbe 024f 4c3d 9783 09be
000000e0: b9e8 383e b533 4f3e 48f4 743e b2ac 60bd
000000f0: e79e 3ebe fd68 863d f7cc 083e 5b0b d3bd
00000100: 2680 403e bd81 01be 7afd a7bc daa0 903d
00000110: 1335 2fbe 7274 213e 90cb 8ebb 38ee 8abb
00000120: 8db3 353d 9101 39bd ae4f ddbb e953 fe3d
00000130: adc3 ed3d a48f 9c3d 6f75 ccbd a88f 673e
00000140: 9c82 60be 2d27 7bbd 7d40 cebd a670 413b
00000150: 3415 e13c cf6f 033c f6ef 32be e29b e8bc
00000160: 8258 423e 4d55 e9bc c573 3f3e 34cd f73c
00000170: 216e d5bd 72a6 523e c93b f8bc c7d7 02be
00000180: 321c 453e a0d9 c4bd fe06 423e 3897 5b3e
00000190: ff73 7f3d 90ab ed3d 8b30 2a3d d8fa 5c3e
000001a0: 1395 e8bd 739a 893e af81 3d3c 1800 cbbd
000001b0: acd9 dc3c d36b 503e e735 c5bc 272e 463e
000001c0: 8ffb 21be 2494 3abd 7d91 a53c 1ad7 cc3d
000001d0: 8fb5 9bbd 79a8 30be ab1b e63d fc05 cdbd
000001e0: f27f 85be 7ee4 bdbd 33f1 693d dce9 863e
000001f0: 1e13 0abe 7e2b 1abe 93fe 743e 86e9 933e
00000200: 82a9 a5bd db60 e2bc 9c77 5ebd 0670 7bbe
00000210: 6e1d 40bd 881c 6cbe 7946 113e 8706 6abe
00000220: f11b 4bbe 0151 0e3b f0e0 91be b6c7 cb3d
00000230: 3111 363e ffe9 5dbe b6f8 f6bc 5449 b3bd
00000240: b408 b73b 1f2e 0f3e 2b65 1b3e 150c 42bd
00000250: 427f 243e 79b0 2a3e f1a6 803e abc9 34be
00000260: fd36 ba3d 681a 573d 0558 0e3d d570 7d3d
00000270: 213b 2cbd b66d 70bd 1199 953e 2940 b5bd
00000280: 8a23 20be 3074 353e 5bdb b3bd 85e5 563e
00000290: e5fa e13d a2ce 5f3d 560c 753e 0cce 9abe
000002a0: 96b3 e73b 2ee0 253d e463 c8bd ff29 6dbd
000002b0: d13d 4d3e 41b3 4fbe c02a 9a3e ca04 4dbe
000002c0: b80a 25bd e416 1c3e 4c5b d83d 8ea6 3b3e
000002d0: 93a9 2b3e 6dd2 bebc 7315 103e f094 e33d
000002e0: 21a6 ba3d 5e03 7b3b 5e85 54be ea71 99bc
000002f0: d44f 26be b0d7 7dbd bbe1 18bd 0c66 83bd
00000300: 804d 503d 87d2 0f3d bd26 e5bb 3d0a ef3d
00000310: 4de8 433e 18aa 09be c061 973e 2b94 013e
00000320: 4add 52be 7253 5d3d 21ca e83b 41e9 adbe
00000330: ca87 d5ba 20ea ab3d 3908 5d3e f5ee c6bd
00000340: efce 12be 95a1 103c b9db f33d 74e7 953e
00000350: 080f 60be 4402 79be 8732 143e 5e67 9f3d
00000360: 92de c03d a4ae 31bd 56ee d0bd 3fed cfbd
00000370: 87a2 23be a1bb 61be f7ba 6bbc fde8 83be
00000380: 9134 debd ecff 15be 4b89 b2bd 822c a3bd
00000390: 5c2d e6bd 03b1 ba3b c093 77be 2c48 3c3d
000003a0: 50ee 5b3d c0b4 0bbe f899 2a3e 8a5f b83d
000003b0: d684 75bd 9ad5 efbd 3724 47bd d7c9 a73c
000003c0: ff32 6dbe fbb4 073d 0a8a 5ebe 23da dabd
000003d0: a74e 893e 60e3 5e3e 01af bfbd 1345 6fbe
000003e0: cfb9 d23d f7fd 33be a25d b83d 6f7e 17be
000003f0: 4205 913d 65a8 bf3d 88f5 57be 3f55 1ebe
-0.112330094 0.399284 0.29296646 0.21207027 -0.19535993 0.24646327 -0.15424378 0.30163568
0.27793202 0.34370852 0.36569726 0.10569981 -0.22159289 0.049583323 -0.007577999 -0.048630066
-0.008103499 -0.31647253 -0.17973244 -0.22151037 0.035436597 0.10565125 -0.2700636 0.07233895
-0.106997415 -0.04274903 -0.031788312 -0.15641673 0.20459358 0.13343759 -0.2980455 0.24855134
0.22690383 0.042647947 0.26522228 -0.16438563 -0.14337446 -0.25484017 -0.23009965 0.063019134
-0.1951804 -0.30972257 0.12926356 -0.094207436 -0.08657044 0.11075503 0.014095868 0.032555193
0.16549689 -0.3840065 -0.104828924 -0.15228274 -0.19636707 -0.18677013 0.049880035 -0.13429104
0.18057527 0.20234568 0.23921311 -0.054852195 -0.18615304 0.06562994 0.13359438 -0.103049
0.18798885 -0.12647147 -0.02050661 0.0706193 -0.1711009 0.15767077 -0.0043577626 -0.0042398237
0.044360686 -0.04516751 -0.0067538833 0.12418348 0.11609588 0.07644585 -0.09983336 0.22613394
-0.21924824 -0.061316658 -0.10070894 0.0029516607 0.02747593 0.008022263 -0.1747435 -0.028394643
0.18979076 -0.028483057 0.18696506 0.030249216 -0.10421396 0.20571306 -0.030301945 -0.12777625
0.19249037 -0.09611821 0.1894798 0.21444404 0.062366482 0.116049886 0.0415502 0.21580064
-0.11356559 0.26875648 0.0115665635 -0.09912127 0.026959263 0.20353632 -0.024073554 0.19353543
-0.15818618 -0.045551434 0.020210976 0.10001965 -0.07602989 -0.17251767 0.11235746 -0.10010907
-0.26074177 -0.09272097 0.05711479 0.26350296 -0.13483855 -0.15055653 0.23925237 0.28889102
-0.08088972 -0.027634075 -0.054313287 -0.24554452 -0.046903066 -0.23057759 0.1418704 -0.22854052
-0.19834878 0.0021715763 -0.28491926 0.09950201 0.17779996 -0.21671294 -0.030147891 -0.087542206
0.0055857543 0.13982438 0.15175311 -0.047374804 0.1606417 0.16668881 0.25127366 -0.17655055
0.090925194 0.052515417 0.03475191 0.061875183 -0.042048577 -0.05869838 0.29218343 -0.08850128
-0.15638557 0.17720103 -0.08782073 0.20985992 0.110341825 0.05464042 0.23930487 -0.30235326
0.007070969 0.040496998 -0.097846776 -0.05790138 0.20043112 -0.20283224 0.3011074 -0.20021358
-0.040293425 0.15243107 0.105642885 0.18325254 0.16763906 -0.023293698 0.14070682 0.11112392
0.09113718 0.0038301568 -0.20754 -0.018731076 -0.1624139 -0.061973274 -0.03732465 -0.06415948
0.05085516 0.035112884 -0.0069931434 0.11671875 0.19131584 -0.13443792 0.29566765 0.12654178
-0.20592228 0.054034658 0.007104174 -0.3396702 -0.0016291079 0.08394265 0.21585168 -0.09713546
-0.14336751 0.008827587 0.11907143 0.29278147 -0.21880734 -0.2431727 0.144724 0.077833876
0.09417452 -0.04337944 -0.10201709 -0.10152673 -0.15979968 -0.22044231 -0.014387838 -0.25763693
-0.1084987 -0.14648408 -0.08717593 -0.079674736 -0.1123912 0.005697371 -0.24177456 0.045967266
0.05369407 -0.1364317 0.16660297 0.09002598 -0.059941135 -0.11710663 -0.04861852 0.020481987
-0.23163985 0.03313158 -0.21732345 -0.106861375 0.2681782 0.21766424 -0.09359551 -0.23366193
0.102893464 -0.17577349 0.09002234 -0.14794324 0.07081081 0.093582906 -0.21089756 -0.15462206

action_layer.4.bias f4 [4]
00000000: 67f9 523d ece6 693c 3528 023e 6a2b 74bd
0.05150738 0.0142762475 0.1271065 -0.059611715

value_layer.0.weight f4 [64, 8]
00000000: 172d a93e 0a36 d3bd 15c5 e4bd 22ad 06bf
00000010: 1fb3 44be 05ef 86be ef37 223e c8f4 f63d
00000020: e6c6 603e 909d 933d 8fa1 85be ec1d 943e
00000030: ecbf 17be f983 783e 71bb 873e 971f 97be
00000040: 67c7 1c3e 10dd 17bc c4ea d13d 712f ce3d
00000050: 2aa3 76be 341a dfbd 75bc 513e c50d 94be
00000060: 57c3 753d f010 51be c436 37be e6dc 1c3f
00000070: 363b d03d b96a a03e c907 52be 4a8a d73d
00000080: 4399 ae3e e5a7 013e c99e bcbc 42ae ddbe
00000090: 9941 3c3e ddb7 32be ebe7 073e 48e7 36be
000000a0: 4771 89be edbf 82be 25dc e13d 3446 b63e
000000b0: 364a 0fbd 02a8 ad3e 7665 3e3d 0fe7 2b3e
000000c0: fa7e 633e 930a adbe 7842 44be 529c f23e
000000d0: caa1 2abe 1aa3 a7bd 1854 89bd 872a 2cbe
000000e0: e6a1 c03d 39af c5be 15ec 82be a674 24be
000000f0: 82eb 93be 5105 4fbe 785f 843e 4ebc 8dbe
00000100: 749d 95be 1d36 2b3e ea8e 0b3e bdda 943e
00000110: 1e3a 6c3e a63e 9cbe 4a82 0bbd c162 29be
00000120: 33b9 fe3b cc68 85be dd7d d03d 7022 edbe
00000130: 1eb0 8fbe 08e3 bcbd a287 8abe d286 a23e
00000140: b747 42be 3c92 663d c28b 5cbe 9c8a 05bf
00000150: 121e a33e e0a6 e9be 4d78 413c 1193 dc3d
00000160: f130 8f3e 99cc 4a3e 667c 59bd 2345 423d
00000170: 0f0c d9be 06e3 acbe 8a80 c1bc 2628 553e
00000180: 1fd2 dd3c fabb 1bbe 28da 93be dbed 5bbe
00000190: 218a 2ebe 2e1b 9dbd a066 08be d3a5 afbd
000001a0: 2f51 803e 52c0 2cbe 50b7 603d f7d2 2b3e
000001b0: 6cac 323d 1937 213d f0e8 7b3d e326 c9be
000001c0: 7b25 653e 54bf 0c3e 30a9 f43d 4da6 fe3d
000001d0: 6986 e9be 137e 803d 988e 173e 9445 623e
000001e0: 1d39 c5bd c6f4 05be b8de dd3d 3e18 f83d
000001f0: d326 ac3e f67d 07be 4b18 28be 9974 e2bd
00000200: 2fde 70bd 57d0 c6bd a34c 3fbe 7be4 483f
00000210: 7722 7a3e d3ba 96bd de5f 843e fad3 21bd
00000220: ca29 33be bf91 cc3d 5a21 28be ca66 e43e
00000230: 00cf 823e 42e3 26be 9001 9b3d b8c0 723d
00000240: 38d1 943c aa4c 67be c108 843d 4a26 e6be
00000250: 4580 633e bbfb e8bd c344 42bd 5c68 d73c
00000260: 80c1 b33d fc11 8dbd 7c0e 4cbe ebcd cb3e
00000270: 2f8c 91be 4b3b 833e 0b41 953e d823 a73c
00000280: 779b b7be d3b1 18bd 5f9c 19be be96 143e
00000290: 8b14 a3bd 46fc 3f3f 6db5 533d 2ab8 a0be
000002a0: d56c 7bbe 625a ddbe 1f61 aebe 4ae7 3ebe
000002b0: b864 bb3c 1fe1 273e 4e8c c0bd b8f2 353e
000002c0: 4a41 843e d442 8d3e 9433 8d3d 19a8 473e
000002d0: 7edd 3dbd 6668 e5bd 2756 cb3c e3de 8b3d
000002e0: 6574 6a3d f435 7bbb 2622 e9bd f6fa 29bf
000002f0: 35fc 1a3d c535 1e3e 7938 77be 0ce7 083d
00000300: 3d68 893e 51ea 80bd 51db 463d a76b 3bbe
00000310: bb64 cdbd d71a 1cbe 055d b03d 571e 7fbe
00000320: 1966 03bd 7ff5 64bc 4aa3 1bbe 3623 b73e
00000330: a1b8 8a3e f4db 9a3d b2aa 453e 8ed6 733d
00000340: c799 a13e 693f 183d e80f 113e 56b2 f6be
00000350: c826 8b3e 4634 de3d e4f3 3fbe aee5 a3bd
00000360: 20f8 e53d 55b8 0fbe f3e8 083d 00dd fbbe
00000370: d67f 1f3e ebfc 46be 9877 37be 5ff2 873e
00000380: 9c73 973c 0cda b53e a346 023e 83da 08bf
00000390: 6c9b d2bc 2ecf 013e 8c7c fd3d afa2 a03d
000003a0: e1e4 f9bd ebfb 953e c432 82bd 00c4 823e
000003b0: 5708 5cbe 9b80 bebc ec16 a2be eb8e 1b3d
000003c0: 82d6 acbd 5291 a1bc 68cd 3d3e bac0 343f
000003d0: 4739 3d3d 9c18 95be 5787 f53c 55dd 213e
000003e0: 96ed a0bc dfcf 1fbe 64d5 453e a614 983e
000003f0: 914e 833e 0fbe a93d a16d a13e a302 753e
0.33042213 -0.103130415 -0.11170403 -0.5260793 -0.19208954 -0.26354232 0.1584165 0.12058407
0.21950874 0.07207787 -0.26099822 0.2892908 -0.14819306 0.24269094 0.26510194 -0.2951629
0.15310441 -0.009269014 0.10249856 0.100676425 -0.2408568 -0.1089367 0.20482047 -0.28916755
0.060000744 -0.20416617 -0.17891985 0.61274564 0.101675436 0.31331423 -0.20510782 0.105244234
0.34101304 0.12661703 -0.023024933 -0.4329701 0.18384399 -0.17452951 0.13272063 -0.17861664
-0.26844236 -0.25537053 0.11028317 0.35600436 -0.034982882 0.33917242 0.04648348 0.1678736
0.22216406 -0.3379713 -0.19165981 0.47384888 -0.1666328 -0.08185406 -0.06705493 -0.16813098
0.0940588 -0.38610247 -0.2557074 -0.16060123 -0.28890616 -0.20216872 0.25854087 -0.27682728
-0.2922169 0.16719861 0.13628736 0.29073134 0.23069045 -0.30516547 -0.0340598 -0.16541578
0.0077735423 -0.26056516 0.101802565 -0.46315336 -0.28064054 -0.0922299 -0.27056605 0.31743485
-0.1897267 0.056291804 -0.21537688 -0.52164626 0.3185888 -0.45635128 0.011808467 0.10770238
0.27967027 0.1980461 -0.05309715 0.047429215 -0.42392012 -0.33766955 -0.023620863 0.20816097
0.027077733 -0.15208426 -0.28877378 -0.21477453 -0.1704488 -0.076712 -0.13320398 -0.0857655
0.25061938 -0.1687024 0.05486232 0.16779695 0.043621466 0.039359186 0.061501443 -0.3928748
0.22377579 0.13744861 0.119463325 0.12434063 -0.4561036 0.06274047 0.14800489 0.22096854
-0.09630034 -0.13081655 0.10833496 0.12113999 0.3362337 -0.13231644 -0.16415517 -0.110573955
-0.05880564 -0.097077064 -0.18681578 0.78473634 0.2442721 -0.07359853 0.2585439 -0.039508797
-0.1749641 0.09988736 -0.16418973 0.44609672 0.25548553 -0.1629763 0.075686574 0.059265822
0.01816617 -0.22587839 0.06446982 -0.44951087 0.222169 -0.11376139 -0.047428858 0.02629488
0.087771416 -0.06888196 -0.199274 0.3980554 -0.28427264 0.25631174 0.29151186 0.020402834
-0.35860798 -0.03727896 -0.15001057 0.14510629 -0.07962903 0.74994314 0.051686693 -0.31390506
-0.24553235 -0.4323302 -0.34058473 -0.18642917 0.022875175 0.1639447 -0.09401761 0.17768371
0.25831062 0.27590048 0.06894603 0.19497718 -0.04635381 -0.11201553 0.024821354 0.06829622
0.05723991 -0.003833172 -0.113834664 -0.6639856 0.03783818 0.15450199 -0.24142636 0.03342347
0.2683734 -0.06294692 0.048549 -0.18302785 -0.100289784 -0.15244614 0.08611492 -0.24913917
-0.03207979 -0.013974546 -0.15199009 0.3576905 0.27093986 0.07561484 0.19303396 0.059530787
0.31562635 0.037169848 0.14166224 -0.48182935 0.27178025 0.10849814 -0.1874538 -0.08002792
0.11228967 -0.14035161 0.033425283 -0.49192047 0.1557611 -0.19432418 -0.17916715 0.26552102
0.018487744 0.3551792 0.12722258 -0.5345842 -0.025708877 0.12676689 0.12377271 0.078435294
-0.12201858 0.2929376 -0.06357339 0.2554016 -0.21487556 -0.023254683 -0.31658113 0.037978094
-0.084393516 -0.019722614 0.18535388 0.7060658 0.046197202 -0.29120338 0.029971762 0.15807088
-0.01964454 -0.1560664 0.19319683 0.29703254 0.2564588 0.08288204 0.31528953 0.23926787

value_layer.0.bias f4 [64]
00000000: c207 09be 0a70 c63e e522 d13d 58f7 d03e
00000010: 5a17 46be 7351 233e 8e38 e83e 3e61 733e
00000020: 6357 a83e 5dc7 68be c9d2 7a3c d21e e7bc
00000030: 41fc 94be 7a85 633e 2774 37bd 7e06 153e
00000040: b0e8 d93e 3cc7 b53d 8fa7 ddbd 7832 933e
00000050: 4b11 b9be 3b8d febd 7140 383d 0134 b0be
00000060: 2b51 1b3d dafc 333d b424 b3be 75da 09be
00000070: 957b c8be fcd1 183e 88cb 913e 542a c63e
00000080: d50b 95be 4e57 2b3d 6527 923e 18db 49be
00000090: c6ce 66be 19d5 4c3d 839f 48be 857b 1f3e
000000a0: bca7 af3d 8589 513e 0110 abbe 82d8 cebd
000000b0: c263 253e da24 473d 5ce1 1ebe 8d84 243e
000000c0: e806 85bc be30 223e 808f b8be 3945 453d
000000d0: 9dcb e9bd d4c1 39be b200 5dbe 67fb ae3e
000000e0: da5e 86bd 7993 d2be 9a85 ee3d 85e7 5dbe
000000f0: 2433 90be e225 063e 6f5a ad3e 8f19 98bc
-0.13381866 0.38757354 0.10211734 0.40813708 -0.19344845 0.15949039 0.45355648 0.23767564
0.3287917 -0.22732301 0.015309044 -0.028212938 -0.29098704 0.22218886 -0.044788506 0.14553258
0.4256034 0.088758916 -0.10822975 0.28749442 -0.36146006 -0.12429281 0.04498333 -0.34414676
0.037919205 0.04394231 -0.3498894 -0.13462241 -0.39156786 0.14923853 0.28475595 0.3870417
-0.2911059 0.041831307 0.2854568 -0.19712484 -0.22539815 0.050007913 -0.19592099 0.15574463
0.08576915 0.20462616 -0.33410648 -0.10099889 0.16151336 0.04861913 -0.15515655 0.16066189
-0.016238645 0.15838906 -0.36046982 0.04816172 -0.11415789 -0.18140346 -0.21582296 0.3417618
-0.0656106 -0.41128138 0.11646576 -0.21670349 -0.28164017 0.13100389 0.33858058 -0.018566875

value_layer.2.weight f4 [64, 64]
00000000: 7215 b3be fa92 9fbe 2d85 b9be 2cde 5dbd
00000010: 7eb0 48be 2bf0 b13e 9f0e 92be d94b 70be
00000020: 09e1 d83d d726 213e b3be f13c dd81 bdbe
00000030: 19e3 743d 34b1 9cbe fb1b 63be 47ea 6a3e
00000040: dcd5 bfbd f7f6 c63d 810c 503e 4382 3dbe
00000050: 88cd 813e 0244 4b3e 183f 50be 63ca f7bc
00000060: 889d c7be 6b3e 953d a089 11be 6649 bc3c
00000070: 44f1 773d 0799 2fbd 32c7 aabd f5f6 febd
00000080: f779 973e c3cf 99be 0715 c2bd affd 883e
00000090: 8704 af3e 2894 5f3c d3bc 4cbd ad39 d4ba
000000a0: 84b1 243e cc32 763d 3fc5 69bc 66f5 cdbb
000000b0: 2887 3dbe 01a6 763e 4613 333e 272f 24be
000000c0: d6b0 70bd cadd 13bd 405c e13d c3a0 adbe
000000d0: cc73 003d a65d 14bc 0ecb b03e 227d 9d3e
000000e0: fa43 84be f204 113e 7dc1 50be 4086 873e
000000f0: 7d05 5d3e 8eab 0bbd a8ec 9ebe 1a5e 2d3e
00000100: c0e8 8fbd b52b 32bd 5362 bdbd df1d 0c3e
00000110: 7450 fa3b 530b 51bd 65f2 83bb 0b7c 1a3c
00000120: bbe9 c6bd dc9a 323b c85f 683d 8316 e1bb
00000130: ae8e 9d3d 4287 30be dfe0 f33b 6565 9f3d
00000140: 9933 cb3d cc73 3dbd 1b2b 26bd 158f d83c
00000150: 8ec7 73bd e79e 5ebb 65fe 0abe d54f 183d
00000160: 351e 81bc d22c a9bc 4be6 ae3d 72ea aa3d
00000170: fc53 2f3d fd6c c6bd adc5 21be 0ad8 ccbc
00000180: 49bb 1a3e f3d1 2dbe d7bd a13d cf7c 45bc
00000190: 13b2 543d cd9d 103e 7959 bdbd f2a5 5cbd
000001a0: 0bec d0bd 1825 ca3d 0a94 ddbd 0c36 093d
000001b0: 1ad3 5f3d 71e2 34bd 092a 0d3e 7c69 81bd
000001c0: 7a4c 2e3a 178b 9c3d 600b b03b 3b39 4abb
000001d0: 6231 c63d 4c2b 82bd 8490 8c3d 8050 c2bc
000001e0: 52da 4fbe f931 753c e1e9 5d3d f705 c53d
000001f0: 67c3 7f3d 5c02 ea3a 6e35 6dbd 4fa7 86bd
00000200: 38b8 333d 0695 01be f7a0 a6bc 97f1 06be
00000210: f3e8 cabd ac8d 0dbd 2390 ab3d e716 82bd
00000220: d525 1bbe 7cf8 afbc 022b 91bd 507f 87bd
00000230: 8350 03be 646c c4bd 3ba6 153d 73c1 07be
00000240: 1f14 9f3d a036 14bd 19da e6bd b60a 5b3d
00000250: 5926 45bd 7e7c 053d 7f2b 5f3d 525a 3dbd
00000260: afe2 e4bd 7a9d e63b d404 81bd b3f4 2cbd
00000270: 38b4 96bd e500 f33d c0cc afbd c1d8 7bbd
00000280: db96 cb3d 433a 35bc d7ad 8a3d 14ac c7bd
00000290: 851d 6ebd ea27 f03d 9b95 163e 8515 60be
000002a0: 044e 0a3e dd10 4c3d 4c58 5b3c cb30 c43d
000002b0: 9588 f03c bd84 92bc b5d2 df3d 75c6 0ebd
000002c0: 94ce f63c a660 c2bd 6c2e 1c3e b074 ba3c
000002d0: 1e3d fb3d bca4 2d3d 5348 3bbe be4f 36be
000002e0: a61b 9c3c 460c 9dbd fa42 36bd ffbf d6bb
000002f0: d4fe cbbc b062 26bd 24ad 16be f051 173e
00000300: 7d87 9f3d c1f4 11bd a825 24be 06d6 b93d
00000310: 9872 8cbd e09e cf3d d784 adbd 6a70 923d
00000320: 8f9f 92bd f7e6 183d 34f4 ae3c c09f da3c
00000330: 8d7c 30bd c473 40bd 4f4b ab3c e3e7 d1ba
00000340: 6721 9cbd 759c 343d 00ad 86bd d32e 523d
00000350: 9425 f73d 8079 153e 7eb3 3cbd 28e2 4b3e
00000360: ed39 69b8 1bbc b3bd ad0e a0bd b71f c6bd
00000370: 7953 613b 3c22 d0bd 6eeb 43bd c7c8 a3bd
00000380: c155 803d 68a3 eb3d a8f5 ea3c 2006 a6bb
00000390: f585 0b3e 8b5e e8bc 8330 863d a24d 97bb
000003a0: 50af 9bbc 079d 403c cf60 65bc fb38 8abd
000003b0: 6d37 e13d c4a0 71bd 4ab1 383e a9cc 7f3d
000003c0: 82fd 22bd 45c9 19be 61ee b53d ccbc b1bd
000003d0: 9b01 133c a913 1fbd 9319 12bd 831d 9ebd
000003e0: 7d92 243d f7c3 443d c7e7 0d3d 62bd 2d3d
000003f0: 521f 14be 035d 003e efb8 28be 836e dd3d
-0.349773 -0.31166822 -0.36234418 -0.054166958 -0.19598576 0.34753546 -0.2852678 -0.23466434
0.10589797 0.15737472 0.029509878 -0.3701314 0.05978689 -0.30603945 -0.22178642 0.22940932
-0.09366962 0.097150736 0.2031727 -0.18506722 0.2535212 0.19850162 -0.20336568 -0.030247873
-0.38987374 0.07287296 -0.14212656 0.022984218 0.060532823 -0.042870548 -0.08338775 -0.12449447
0.2958524 -0.30041322 -0.09476667 0.26756045 0.34183142 0.013646163 -0.049984764 -0.0016191505
0.16083342 0.060107037 -0.014268219 -0.0062853573 -0.1850859 0.24086763 0.17487821 -0.16033612
-0.058762394 -0.036100186 0.110039234 -0.33911714 0.031360433 -0.009055531 0.34529918 0.3075953
-0.25833112 0.14162043 -0.2038631 0.26469612 0.21584125 -0.034099154 -0.3103993 0.16930428
-0.070268154 -0.043498714 -0.092472695 0.1368327 0.0076389853 -0.05103619 -0.0040266984 0.009428988
-0.09712549 0.0027252948 0.05673197 -0.0068691387 0.076932296 -0.17239097 0.007442578 0.07783011
0.09921951 -0.04625301 -0.040568452 0.026435414 -0.059516482 -0.0033969225 -0.13573606 0.03718551
-0.015761474 -0.020651255 0.08540019 0.08345498 0.042804703 -0.096887566 -0.15798064 -0.02500536
0.15110506 -0.1697462 0.07897537 -0.0120536825 0.051927637 0.14122696 -0.09245581 -0.053869195
-0.102012716 0.09870356 -0.10819252 0.03349881 0.05464468 -0.044161264 0.13785566 -0.06318948
0.0006648969 0.07643717 0.0053724498 -0.0030856866 0.09677388 -0.063559145 0.06863502 -0.023720026
-0.20298126 0.014965528 0.054178122 0.09620278 0.06244221 0.0017853486 -0.057912283 -0.0657488
0.043876857 -0.12654504 -0.020340426 -0.13178097 -0.09907713 -0.034558937 0.08377101 -0.063520245
-0.1515115 -0.021480791 -0.07088281 -0.0661608 -0.12823682 -0.09590986 0.036535483 -0.13257389
0.0776751 -0.036184907 -0.112720676 0.05347701 -0.048132274 0.032589428 0.05448484 -0.046228714
-0.11176049 0.0070378156 -0.06299749 -0.04222555 -0.07358593 0.11865405 -0.08583975 -0.06148601
0.09940883 -0.011061254 0.067714386 -0.09749618 -0.05813362 0.11726363 0.14705507 -0.21883209
0.13506323 0.04982077 0.013387751 0.09579619 0.029362002 -0.01788556 0.10928861 -0.034857232
0.030127801 -0.094910905 0.15252084 0.022760719 0.122675166 0.04239343 -0.18289308 -0.17803857
0.019056153 -0.076683566 -0.044497468 -0.0065536494 -0.024901785 -0.04062146 -0.14714485 0.1477735
0.07789514 -0.035633806 -0.1602999 0.09074025 -0.068577945 0.10137725 -0.08472603 0.071503475
-0.0715934 0.03732964 0.02135668 0.026687503 -0.04308753 -0.046985403 0.020909933 -0.0016014542
-0.076235585 0.04409452 -0.06575966 0.051314186 0.12067714 0.1459713 -0.046069615 0.1991049
-5.5605477e-05 -0.08776113 -0.07815299 -0.09674018 0.003438203 -0.1016278 -0.047831945 -0.079972796
0.06266356 0.11505777 0.028681591 -0.005066648 0.1362532 -0.028365394 0.065522216 -0.004617409
-0.019004494 0.011756188 -0.014000132 -0.067491494 0.109969 -0.05899121 0.1803638 0.06245104
-0.039792545 -0.15018184 0.08883358 -0.08678588 0.008972551 -0.03883711 -0.03566892 -0.07720473
0.040178765 0.04803845 0.03464487 0.042416938 -0.14465073 0.12535481 -0.16476797 0.10812094

value_layer.2.bias f4 [64]
00000000: 3388 5dbd ebcb f73d b031 2e3d b8d4 943d
00000010: ff5e 0e3e 5dab e439 0099 4ebd 0df0 893d
00000020: a6a4 0fbe ceab a2bd 9e02 15be f9ae 963c
00000030: 43f1 14be 4e86 1e3e 4951 a5bd 16b1 0e3d
00000040: 6af5 8b3d 1bbc e2bd e98d 29be 0610 363d
00000050: b548 0abe cb7a 9c3c e52e cdbd 9a70 9bbb
00000060: 043e f6bd 0481 0bbe aa49 633e 7b37 c63c
00000070: 7ff0 a33d 61b0 45be dfb8 2fbe f638 28be
00000080: 0276 a33d 1bda 643e a0bb ebbd 8392 e3bd
00000090: 8e85 cdbc 39ed 6c3e 8f9f 1a3d a854 6e3c
000000a0: 775a b63d dad1 7abd c820 a43b 3e4e 3d3e
000000b0: 4331 e0bd 3c15 653d 9d28 7cbd b10e 10bc
000000c0: 6e68 d43b 51be 8d3a c51c 993d 0631 b93d
000000d0: 79e7 a3bd 09f5 003e f1ea 683e 8f5e b03d
000000e0: d232 b1bd b4e0 08be 3110 0fbd f951 71bb
000000f0: f2f5 ffbd a95e 94bd e7c1 a93d 5365 1abe
-0.054084968 0.12099441 0.042527854 0.072671354 0.13903426 0.00043615224 -0.05043888 0.06735239
-0.14027652 -0.079429254 -0.1455178 0.01839398 -0.14545159 0.1548092 -0.080721445 0.03483685
0.068339184 -0.110710345 -0.1655804 0.044448875 -0.13504298 0.019101521 -0.1001871 -0.0047436478
-0.12023547 -0.13623434 0.2219607 0.024196377 0.08004855 -0.19305564 -0.17160366 -0.16427979
0.079814926 0.22348826 -0.11510396 -0.11111929 -0.025088098 0.23137368 0.037749823 0.014546551
0.089039735 -0.061235286 0.0050087906 0.18486878 -0.10946896 0.055928454 -0.06156217 -0.008792565
0.0064821756 0.0010814165 0.074761905 0.090425536 -0.08003134 0.12593473 0.22745873 0.086117856
-0.08652271 -0.13366967 -0.03492755 -0.003682254 -0.12498082 -0.072446175 0.08288937 -0.15077715

value_layer.4.weight f4 [1, 64]
00000000: 33e7 d7bd 7969 dd3b c48d cdbc ccee 003b
00000010: 6cb2 ebbc 35c5 f43b 676f a53c a678 8b3c
00000020: 332f 463c 39dc 8f3c 32c0 0a3c fb9d 6ebc
00000030: 718e 073c 0f2f 6a3c 3fe8 af3b 175a 09bc
00000040: 9428 edbb f284 7ebc f552 56bc a787 783c
00000050: c053 9d3b b0a2 96bc a16d 593c 9710 cb3a
00000060: ec44 063b 5880 1dbd 2ed3 a2be 49e6 2a3c
00000070: 3560 80bc 5dc1 303c 4959 aa39 0648 b1bd
00000080: 3a07 74bb 0f7b b9bd 64db 86bd 1428 23bd
00000090: b7f0 a03b 0d11 8fbd 72eb 00bc 4b50 af3c
000000a0: 7995 8f3c a17f 25bc 86a5 07bd 4eca 8dbe
000000b0: 69cf ad3b dcb3 d2bb dbf6 b73c 3e94 85bc
000000c0: ebed 103d 1e1a 203c ddca abbb 8ab6 133e
000000d0: 0c65 33bd 4a5b b63b 0ffe 4ebc 6a8c fa3c
000000e0: ca4b ccbc 1455 03bb e041 21bc 90dd f83c
000000f0: 2382 8bbd 64bc b1bb 6754 f43a c94b 803c
-0.105421446 0.006756958 -0.025092013 0.0019673584 -0.028771602 0.007469798 0.020194722 0.017025303
0.012096214 0.017561065 0.0084686745 -0.014564033 0.008273707 0.014293446 0.005368262 -0.0083832955
-0.0072375033 -0.015534626 -0.013081302 0.015169061 0.0048012435 -0.018388122 0.0132707665 0.0015492615
0.0020487858 -0.038452476 -0.31801742 0.010430881 -0.015670875 0.010788289 0.0003249145 -0.086563155
-0.0037235753 -0.09056675 -0.06584814 -0.039833143 0.004911508 -0.06985674 -0.007868635 0.021400591
0.017527329 -0.01010123 -0.03311684 -0.2769341 0.0053042662 -0.0064301323 0.022456577 -0.016306039
0.035383146 0.009771852 -0.005242689 0.14425102 -0.043797538 0.0055650817 -0.0126338145 0.030584533
-0.024938483 -0.0020039724 -0.009842366 0.030379087 -0.06811931 -0.0054240692 0.0018640877 0.015661137
